ga_optimized_weights.pth (torch, 5112 bytes, 4 tensors)

fc1.weight f8 [25, 13]
00000000: 831d 0584 a4e7 a8bf 42e7 7eb7 d7ef ad3f
00000010: e96e e9c9 9835 913f 25c0 6b09 b668 a9bf
00000020: e04b e7e5 4ef0 bcbf 70c4 e718 9b1a a73f
00000030: 0c6a 8818 2a0f b33f 114c 8fbd 5779 8f3f
00000040: e873 3dd7 3df1 abbf 02ba ea38 1ba5 7c3f
00000050: 9975 33f6 b1be af3f 6fb9 f5cd a5f6 bcbf
00000060: 49c3 5de6 0fbe a73f ec50 a4fd 1faa b13f
00000070: ad12 2993 4333 a9bf 44e6 1f26 8bf2 b9bf
00000080: 2dfd 26e3 eb0f a43f 9084 7f12 1d9d c63f
00000090: 0823 646a 5f27 c5bf 5d2c b9ce fa97 bfbf
000000a0: e7c8 5d3b d420 a53f 70e9 09d6 f2a6 a7bf
000000b0: e903 0a58 2c1c a63f a50e 3045 2469 953f
000000c0: f8cc de3f 40ef afbf f92a 7482 56e4 a5bf
000000d0: a613 0d57 b66e a6bf a794 480a c96f 9f3f
000000e0: 669f 55d0 cd35 863f 1f6c 6a4a 55f8 a33f
000000f0: 6829 8c7c 4803 9e3f 2497 e4ef 832e c0bf
00000100: d532 c657 f586 b4bf 3867 6061 21b6 c03f
00000110: 472f abb4 d78b ae3f 38e7 c26d 061e 92bf
00000120: 65ca 9efb 237b ba3f ff2d cb51 f90a aabf
00000130: 4c08 8437 054a b3bf ea7b fd6b f1e3 79bf
00000140: cc67 4ca9 508d b7bf ab4c eab2 938a 993f
00000150: d661 4026 d920 9abf 6de0 73ad c822 6cbf
00000160: 3244 2515 a512 893f 0dd7 9898 677d c0bf
00000170: 8818 3d92 d21f b1bf c2bf cd6d 88fd a53f
00000180: b124 6da1 6af7 9fbf 9775 cc8e d697 b0bf
00000190: 3d5e 9107 be9b bcbf b53d ad7d a31c a83f
000001a0: 7e59 a659 a9da a93f 707c 0b02 5efc a3bf
000001b0: 3b24 fd4e bc2a 973f f57b f26d fc1e 83bf
000001c0: 9107 9481 7a5d a3bf 3890 6d15 1910 8e3f
000001d0: 0c15 04ad 1e78 983f fb57 d4e3 9ce0 99bf
000001e0: 1f34 6337 3ac0 ba3f e088 7cb0 4ec0 b53f
000001f0: 46ce e172 e8b9 c2bf 77db cb7d 2dda ab3f
00000200: 6310 0fe2 2c93 afbf fa33 c176 0852 c03f
00000210: 8131 735c 6e1b a13f 58aa d481 d53d 9abf
00000220: 0710 a00a 78c1 cebf d373 5407 a598 a2bf
00000230: b7e8 fca0 96cc c63f e944 eb1d 5020 ad3f
00000240: 627d a014 490d b6bf ea9e 68b7 6cf5 83bf
00000250: ad46 dd07 69c6 b0bf 0e79 e1cf 6035 b93f
00000260: 061b 3430 265a 77bf 6472 95e3 d5cf b13f
00000270: e172 8333 6115 9dbf 3270 24d7 c58b bb3f
00000280: b522 6dfe aa44 adbf 50b2 7436 a275 a2bf
00000290: 5281 54dc c419 bdbf 4e94 4016 ac89 993f
000002a0: b8fb 9cec 2051 a93f 516b 4a81 018e b9bf
000002b0: cca6 59db 1e67 433f 3235 6c96 4e58 bebf
000002c0: 4502 d45e d532 c2bf 52c4 6fc4 9b48 b73f
000002d0: c5f0 ed25 f359 b23f c418 e947 1965 653f
000002e0: aac5 7b2a 1e36 a6bf 4ecc 266e 5e72 663f
000002f0: a172 4085 60b4 b13f e6b7 56bf 78a6 bd3f
00000300: 17c4 a57b e351 bf3f f1f6 a382 3ca7 8c3f
00000310: 9296 0416 2642 8f3f 9bca f38d 58b5 b2bf
00000320: 67e5 82f9 484a a4bf 4130 acb3 a029 953f
00000330: f9ef 3a3d a566 c0bf 6613 1ce7 e4e4 d23f
00000340: 2c2e d2cd b242 793f 814a 1298 57f0 bfbf
00000350: 44b9 a833 5fe7 ccbf e8a2 3083 263e b1bf
00000360: 9456 49f7 e8fb bbbf 052f b91b 1e1d c13f
00000370: 6e3e ea8b 45a9 b13f fa66 6c66 5fc4 b0bf
00000380: 58bb 8924 25f0 91bf 27a0 cdc4 c3b9 b73f
00000390: e922 86ac eba7 c43f ae82 bd3c a4d0 9abf
000003a0: e455 8641 e9b6 98bf 212f 7750 ed11 b2bf
000003b0: 37fe 900e 7e25 60bf 8c6d 8369 235c b1bf
000003c0: 0738 bc38 5039 b53f 098b b4fa fc0a a3bf
000003d0: 2480 42dd 007c a33f b08b d0d8 236b c43f
000003e0: 561c f902 6fec b3bf e023 ed28 b392 c2bf
000003f0: 190f 14c5 d2ff a4bf 41cf 5693 1a56 753f
00000400: 7e2b c991 ac8d b1bf 87fa 4691 f056 5d3f
00000410: eebe fdc7 e4aa a13f d487 f295 7c2f a33f
00000420: e20d 49ca 4ba6 a7bf b086 cab6 2b03 91bf
00000430: e659 e1a1 d1f1 babf 7454 8126 8a59 c1bf
00000440: f1ed 1249 4aa1 993f 45ff 7ce2 522e 7abf
00000450: a88d df01 f866 c73f 909e 988c 828d ac3f
00000460: bb49 8fdf 1206 a2bf 1440 2221 fba1 b0bf
00000470: 6394 685a 7002 a8bf 2f5e ae0a 90bf afbf
00000480: e49b 1a1e e500 bb3f 375f 8680 2923 a1bf
00000490: a202 f3d4 7826 b3bf d040 4605 a65b 6e3f
000004a0: f0ae b273 3807 b63f 70ff 313d c66d 9ebf
000004b0: b25a 7d3d e5e1 8abf 68ea 5b91 f0e7 a5bf
000004c0: 3244 d91f 4518 b1bf 3360 b34c 84fd a63f
000004d0: 4065 cf6d 4aae a63f af68 fbde 783e a9bf
000004e0: 4ddc b94f af2c 833f 50ae d369 5029 7e3f
000004f0: d335 49d9 bb0e 7bbf 56b8 9468 e6d6 91bf
00000500: 9bc7 7d44 bb69 9bbf 1589 69e2 26de 97bf
00000510: 21de 1b65 3a02 a0bf 737a 80bc 425a b4bf
00000520: 9bc1 473f fa32 c2bf 4be6 f368 b9bf bebf
00000530: 8072 4482 6c81 9e3f 2e4e d8fd 9cc8 b63f
00000540: 4387 1d67 0719 90bf afdf 56cc 1b7a 55bf
00000550: e90c ccce bb90 a13f 5bb5 7b1f b204 a9bf
00000560: 906f ef9b 6784 bd3f afe0 6b8c dade 9d3f
00000570: 8e41 1291 412b 9dbf 30ac 7eac 4dc4 bcbf
00000580: 87f2 1b7a 687c ab3f 703c c6ab fcdc 95bf
00000590: d52c 7676 6fd4 8c3f 1d0c 3b80 4f79 ccbf
000005a0: d1d3 a4be 5375 b1bf 2258 2a7c c45e c23f
000005b0: 93aa 6d8f f135 c13f 0386 79ff 2457 c13f
000005c0: 7b3c fe7a 9be6 b1bf f1af e39a f8e4 be3f
000005d0: 69c4 bd26 3c13 ab3f 5b56 157a 95f0 abbf
000005e0: ae99 62fb 70a3 b73f 5776 04ef 92f0 b33f
000005f0: 1da9 c4fa 2c09 713f 3346 347e 3787 b2bf
00000600: 3573 9972 de10 c13f ffef c803 6e4c 7f3f
00000610: f7c3 87aa d03a b2bf 2b34 a847 e1a7 bc3f
00000620: e4ad b411 82d1 733f 93d1 5664 4de1 b4bf
00000630: a0bf 0561 a5a4 a5bf e583 0857 b52e bc3f
00000640: df44 f238 d0d2 ae3f f7e4 2172 baa0 86bf
00000650: f610 7641 7b2d cabf 067d f906 de32 b4bf
00000660: 9175 c7e9 2169 9c3f c48a bb43 5861 c5bf
00000670: 6321 ace7 be01 babf 8323 0c7d 8352 983f
00000680: 9eef 11f5 985e 96bf 54e7 a577 bc5e b43f
00000690: 0d00 2d00 c65b 85bf 907f 7a41 2a6a abbf
000006a0: e03d b530 2b8a 6dbf 52f7 5b02 c622 b63f
000006b0: 1313 1775 d76c 95bf cb8f 7feb f21e c0bf
000006c0: 6d1b aaf4 3493 ad3f 6c10 3baf 2fee 96bf
000006d0: d135 f25c d208 b6bf 6a3a 8a67 e8b9 afbf
000006e0: 70ff 44c4 7a21 c03f 8442 fa74 a828 bd3f
000006f0: 236e e970 5668 a6bf 0c92 28a8 6ce1 abbf
00000700: d823 cbf8 9dc0 9dbf 4429 7752 859b 923f
00000710: 70a3 5b69 b60a acbf 5fa9 a280 ef92 af3f
00000720: a980 7f46 3b73 aa3f 3334 3caf 87d8 b13f
00000730: 786d bc9d cbdd ad3f 0c71 0b1a b841 8ebf
00000740: a02e 70ad 7918 a1bf 0692 27ed 3178 b63f
00000750: 727f b6d9 49cc abbf 15f3 8a6c 283c 98bf
00000760: c228 880d e0eb a13f 0006 5e26 dc16 9bbf
00000770: 66a9 5888 4890 83bf 94e8 6809 3096 c83f
00000780: da1d bff6 76a9 c13f 748b 5405 05f0 8bbf
00000790: dfb2 44ba 0710 a9bf 8527 6c10 f0b5 8d3f
000007a0: 586b 37c2 7d7e 973f e055 3994 9faa 6bbf
000007b0: 8659 87bf ea16 a7bf 6c49 e5f5 4dab 59bf
000007c0: a19b 368c 92e4 82bf 99a7 fe2e def0 883f
000007d0: b1d8 fe8e 0dec a73f 44b9 554f 0895 ab3f
000007e0: 2fe1 2fa3 f166 b53f 0e3b 9c4c d119 a03f
000007f0: 3bee e721 bfd5 c2bf 5f49 caa6 d744 b9bf
-0.04864229308673897 0.05847047915399496 0.016806018184396008 -0.04962700715066174 -0.11304181206587272 0.0451248615171459 0.07445014094302155 0.0153681616519972
-0.05457490208093657 0.0069933951732950046 0.0620017636335703 -0.11313854482952988 0.046371933813935735 0.0690021509402105 -0.04921923800842385 -0.10135717087532564
0.03918397090773804 0.1766697254488787 -0.16526405997162663 -0.12341277644115807 0.04126609062849856 -0.04619559157159159 0.0431836945981628 0.02090889618194915
-0.06237221507708485 -0.04275770513966921 -0.04381341755519168 0.030699864628463882 0.010844810409892335 0.03900400670428205 0.029309399225021876 -0.12641953671953232
-0.08018430130887151 0.13055817846980644 0.05966066437176081 -0.01769266171388681 0.10344147580216541 -0.05086497424562352 -0.07534821133961705 -0.006320899061249977
-0.09200004704726367 0.024942691607588923 -0.02551593109100899 -0.0034345550044428325 0.012242593486606255 -0.12882704688097882 -0.06689182348518063 0.04294992771508489
-0.03121725664394565 -0.06481686579032551 -0.11175143894922086 0.04709349545612033 0.05049638003690669 -0.03903478407823335 0.022623960801215964 -0.009336444955179582
-0.03782255965963011 0.014679141966276274 0.02389572077756434 -0.02527089253006663 0.10449565746530752 0.08496562775374938 -0.1462984620044258 0.054398938756938735
-0.06166973361499186 0.12750345038003258 0.033412407670399887 -0.025626503037680187 -0.24027920264063615 -0.036320836205255745 0.17811854229677745 0.056887153293823385
-0.08614022019945858 -0.009745454165638507 -0.06552750055314034 0.09847073626722055 -0.005701207325961693 0.06957756811375188 -0.02840186955369262 0.10760151388643704
-0.057164519842051766 -0.036053723475877875 -0.11367445353653707 0.024939240320368143 0.049447087176751336 -0.09982308775435668 0.0005921269100330417 -0.11853495762280344
-0.1421763146427272 0.09095166726889772 0.07168502498638236 0.002611684204825245 -0.043381636320087694 0.002740082201137229 0.06915858510223895 0.11582140609127087
0.12234327095735896 0.013990853058654081 0.015262887522634192 -0.0730796190799005 -0.039629250009464205 0.020666609732004074 -0.1281324910140709 0.29522059029868897
0.006167124226645931 -0.12476108038598889 -0.2258109094850146 -0.06735459044342529 -0.10931259190814507 0.13370109895401341 0.06898913064855502 -0.06549640894482059
-0.017517643313506553 0.09267829470411525 0.16137453006765348 -0.026186529357235137 -0.024135250686944235 -0.07058604444972306 -0.001971002774126675 -0.06781216932306772
0.08290578255784463 -0.037193208316486155 0.03805544567990207 0.15951965414668967 -0.0778264410265462 -0.14510192392688648 -0.04101427703611033 0.00520906811782479
-0.06856802520012015 0.001790747574986236 0.03450694028185618 0.037471669487117915 -0.046190613215482804 -0.016613657981571606 -0.10525236322550988 -0.13554503326546163
0.025029335699157277 -0.006391834038197268 0.18282985774486105 0.05576713529836497 -0.03520258883476709 -0.06497163351946283 -0.0468936071741062 -0.06200838213333914
0.10548240647277357 -0.03347139066607812 -0.07480578612286107 0.00370581079386776 0.0860476763215805 -0.029715630993905007 -0.013126173914924297 -0.04278518461611186
-0.06677658107334208 0.044902929652096545 0.044298482803876826 -0.04930474969815301 0.009362573261780716 0.007363618960180299 -0.006605848106642625 -0.017421341069330097
-0.02677052121675381 -0.023308379716021472 -0.03126699909438125 -0.07950226881119153 -0.1421807106958227 -0.12011298000643326 0.029790587855233586 0.08899861523996641
-0.01572047774187203 -0.0013108512369921323 0.03430735492113419 -0.04886395105664106 0.11530158574117721 0.02917043191971008 -0.028485321502161258 -0.11237035237597648
0.05368353357878158 -0.021350810989642033 0.014077063372289459 -0.22245210419905073 -0.0681965198935608 0.14351707518352536 0.13445872786845267 0.13547193979597702
-0.06992503884088024 0.12068132192115379 0.052881126145515385 -0.05456988444590812 0.09233766686757036 0.07788961730371945 0.0041591412557784565 -0.07237574416310437
0.133327299076791 0.007641248460057425 -0.0712099472364257 0.11193664550246811 0.004838474352520692 -0.08156284045873567 -0.04227177438121932 0.11008771300158988
0.06020212836404836 -0.011048752410931046 -0.20451298424098469 -0.07890117330815735 0.027744798558946796 -0.16703322703604873 -0.10158913761200021 0.023752264506615283
-0.021845235784425314 0.07957055970282784 -0.010428950195660059 -0.053544350140554475 -0.0036059230384706126 0.08646810109709449 -0.02092301036988704 -0.12594448565425717
0.057763724199552204 -0.022392983503565153 -0.08607210892861096 -0.06196523918071224 0.12602171500656878 0.11390164237878692 -0.04376478317564316 -0.05445422699657251
-0.029055088338996032 0.01817138973073297 -0.054769230233268185 0.06166790433174429 0.05166039691516861 0.06971023586466245 0.058332789425743437 -0.014773786825962996
-0.03338985674062411 0.08777153053194561 -0.054292972399024544 -0.0236669842004061 0.03500271001037582 -0.026454391328575966 -0.00955254236312859 0.1920833631464275
0.13798415229960775 -0.013641394829908761 -0.04895042561324713 0.01450717496983934 0.02294346330550509 -0.0033772579934445573 -0.04509671772000261 -0.0015667210896777818
-0.009225029853792867 0.012178169068494603 0.04672281618643249 0.0538714024395284 0.08360204919870705 0.031446972467270226 -0.14714802890363096 -0.09870670148874215

fc1.bias f8 [25]
00000000: cd2f 899d 1495 a33f b803 ed8b 86d1 9fbf
00000010: b6f7 a3c8 0f59 b13f bb6c 4ca8 dbe3 b03f
00000020: 58be 4ab3 1479 bc3f 9bde 97da 213b c83f
00000030: 64d7 1603 6be6 a7bf f58a 3859 3d2b 88bf
00000040: b616 2e76 d47b c4bf f87a b967 7cc8 acbf
00000050: bcc4 915d 9add a13f c17a 178e 2b32 b53f
00000060: 87a5 2272 9648 a4bf 7a26 c4b4 44fa b2bf
00000070: dcfe f43a 5be2 b33f 70ca 4060 e10c a33f
00000080: 1d68 f5b0 f0f4 b93f 9452 a64f f069 b2bf
00000090: 3335 9518 8075 b6bf 07c3 41ec 471e b03f
000000a0: 5896 e64d 7333 983f a1af fb79 92a3 b1bf
000000b0: a0d6 de51 253e 843f 079e 770a 0ef5 80bf
000000c0: 0a8e d9d2 ca2c 94bf
0.03824676917119483 -0.03107271412887133 0.06776522301149054 0.06597683771944933 0.11122254731412207 0.18930457280633992 -0.046679824950316 -0.011801223073296433
-0.16002898951062655 -0.05621708646935092 0.03489382164196672 0.08279678553615623 -0.03961630004171029 -0.07413129246938324 0.07767267407779904 0.03720764446224656
0.10139374084738546 -0.07192899651119894 -0.08773041343848291 0.06296205060949599 0.023633767728503535 -0.06890216329673972 0.009884158669460519 -0.008279905027804636
-0.019702118987323693

fc2.weight f8 [1, 25]
00000000: a785 e48c dd8f aa3f 38b2 1a75 1d7d 973f
00000010: c313 f524 034a a0bf 2e34 9472 f8fd 92bf
00000020: 90b1 59b1 de05 423f 5008 8296 c96a abbf
00000030: 34a6 2f4a 27dc 83bf 0ada dbe9 ce99 973f
00000040: cd69 9686 a111 a4bf 4b60 ff0b bf0b a73f
00000050: 49b1 121c e29b 7cbf 6d46 028b 9a68 93bf
00000060: e66c b910 ca5e bf3f e89b e07a f282 9b3f
00000070: 40cc 15b3 dc5f bf3f 663a 386f 61d3 a5bf
00000080: f83f 9975 1dae a8bf 8e1c 65db dea4 ad3f
00000090: b9b4 3ea5 2f55 953f c4e8 3025 263e 7bbf
000000a0: 8eb1 5990 8132 abbf a139 a0b9 1ebc a13f
000000b0: 216a 17d5 f395 a13f e788 ce12 639e 993f
000000c0: 797f 4685 b98e b4bf
0.0518788561332813 0.02293821360824408 -0.031814668904679454 -0.018546945565550192 0.000550016152101972 -0.05354909860854262 -0.009697253180962574 0.023047669433220043
-0.039197013548988836 0.045011491980119965 -0.006984599343166594 -0.018953718885831018 0.12254012020405333 0.02686671137794497 0.12255648967929833 -0.04262833101903567
-0.04820339260606937 0.057898487359630754 0.02083277174067597 -0.006651066784849561 -0.05311970603074477 0.034638366851243114 0.03434717155660772 0.025018260977625408
-0.08030280593675156

fc2.bias f8 [1]
00000000: 2f9e 4932 b5ce 73bf
-0.004835803793504164
